…
 model.summary() model.compile(loss = &#39;categorical_crossentropy&#39;, optimizer=&#39;rmsprop&#39;, metrics=[&#39;accuracy&#39;]) history = model.fit(train_generator, epochs=25, steps_per_epoch=20, validation_data = validation_generator, verbose = 1, validation_steps=3) model.save(&quot;rps.h5&quot;) . Found 2520 images belonging to 3 classes. Found 372 images belonging to 3 classes. Model: &#34;sequential&#34; _________________________________________________________________ Layer (type) Output Shape Param # ================================================================= conv2d (Conv2D) (None, 148, 148, 64) 1792 _________________________________________________________________ max_pooling2d (MaxPooling2D) (None, 74, 74, 64) 0 _________________________________________________________________ conv2d_1 (Conv2D) (None, 72, 72, 64) 36928 _________________________________________________________________ max_pooling2d_1 (MaxPooling2 (None, 36, 36, 64) 0 _________________________________________________________________ conv2d_2 (Conv2D) (None, 34, 34, 128) 73856 _________________________________________________________________ max_pooling2d_2 (MaxPooling2 (None, 17, 17, 128) 0 _________________________________________________________________ conv2d_3 (Conv2D) (None, 15, 15, 128) 147584 _________________________________________________________________ max_pooling2d_3 (MaxPooling2 (None, 7, 7, 128) 0 _________________________________________________________________ flatten (Flatten) (None, 6272) 0 _________________________________________________________________ dropout (Dropout) (None, 6272) 0 _________________________________________________________________ dense (Dense) (None, 512) 3211776 _________________________________________________________________ dense_1 (Dense) (None, 3) 1539 ================================================================= Total params: 3,473,475 Trainable params: 3,473,475 Non-trainable params: 0 _________________________________________________________________ Epoch 1/25 2/20 [==&gt;...........................] - ETA: 1s - loss: 5.8507 - accuracy: 0.3452WARNING:tensorflow:Callbacks method `on_train_batch_end` is slow compared to the batch time (bat
…
